firmware/src/model.tflite (tflite, 436340 bytes, 3 tensors)

arith.constant f2 [32, 3, 3, 1]
00000000: 22b0 551e 3730 1f2e 90af dfae 54ac 3c2d
00000010: db28 a12e 34b0 3ead 6530 7da8 ac2d e6af
00000020: b429 fa2c 65ad ea1b 8ea9 cf2d 89ad f8ad
00000030: afa7 dfad 5f2d c429 fe1a 9e2d 0f2b 31ad
00000040: 092c 39ad b9ad 162d eca7 312a 2713 3f2d
00000050: f2ad 00ad 3430 222a 5227 272c 5ead 5818
00000060: 1f30 db26 2ba0 02ac c3a6 972a 17b0 1ab0
00000070: 4eab 982d 67b0 f1a9 aa9d 12af 012d 0630
00000080: 07ab dfaf bd2f 04af d72f b7ae 00a9 af1b
00000090: 182e 47a8 e6ae f6aa 742d c1ae f521 a62d
000000a0: 9ba8 ddac 74a8 4329 ce1a d0a9 e72b 53ac
000000b0: 9b2f 942f cbac 142b 1122 6f28 39b0 7aad
000000c0: 4930 2eaa 09af 9f24 eb2f 77ac 232e 3eb0
000000d0: 98ae 1f30 e02e d3ab 342d 9f2b 50aa 6928
000000e0: 2f26 f8a2 17b0 1b2a 392b 7130 a6ad 5b26
000000f0: 36ae 6e2b 632c 3f2a d9ab b92f 02a7 92ae
00000100: 2326 9a8f 7b2d d329 521a 70a9 8c2f dba6
00000110: 3230 472d 4daa 452f 1f2d 0cac 9628 80ab
00000120: ceaa e029 83af f0af 9326 fea7 94ad 622d
00000130: 6230 5524 8730 74ad 12a3 842c 6cac 0e30
00000140: 201f a02f adac 0a2e 582c 9ead e1a8 59aa
00000150: d12f 0f25 0eac 4230 122c 8a25 5629 dcab
00000160: 84aa 942b a423 b1a9 d12f 341d f524 a12d
00000170: a2a8 0d30 7b2e 1830 5328 dfab 33ad 2221
00000180: c0a3 8a2f acad eb2b 72b0 b2a6 eb2b c328
00000190: 35b0 3baa 20a4 3d2d 1830 a828 bd2d e026
000001a0: aa27 822d caaf 08aa 11a1 a9ad c61c 59a7
000001b0: bcad 39ac c1ac 9c2f 32ad f4ab 67ad cdaa
000001c0: e22b 1f28 8430 12b0 4029 1eb0 ad2a 53af
000001d0: 2faf ec2c e5ae 5cb0 8429 1830 8428 e32d
000001e0: 8428 7627 9929 1f2c 8cb0 4f2e bda5 29a9
000001f0: a22b 2b21 01ac 83b0 80a2 42b0 ecad 8d25
-0.1292 0.006184 0.1317 0.09564 -0.11816 -0.10736 -0.0676 0.0818
0.03793 0.1036 -0.1313 -0.0819 0.1373 -0.03506 0.0886 -0.1234
0.04456 0.07776 -0.0843 0.003864 -0.0434 0.09076 -0.0865 -0.09326
-0.03001 -0.09174 0.0839 0.04504 0.003414 0.08777 0.05515 -0.0811
0.06305 -0.0816 -0.0894 0.07947 -0.03094 0.04837 0.000873 0.082
-0.0929 -0.0781 0.1313 0.0479 0.0286 0.0649 -0.08386 0.002121
0.1288 0.02678 -0.00814 -0.0626 -0.02641 0.05148 -0.1278 -0.1282
-0.05707 0.0874 -0.1376 -0.04642 -0.00553 -0.1105 0.0782 0.1257
-0.0549 -0.123 0.1209 -0.1096 0.1225 -0.1049 -0.03906 0.003752
0.0952 -0.03342 -0.1078 -0.05438 0.0852 -0.1055 0.011635 0.08826
-0.03598 -0.076 -0.0348 0.0411 0.003323 -0.0454 0.06174 -0.06757
0.11884 0.1184 -0.0749 0.0553 0.01185 0.03464 -0.132 -0.0856
0.1339 -0.04828 -0.1099 0.01805 0.1237 -0.06976 0.0959 -0.1326
-0.103 0.1288 0.1074 -0.06113 0.0813 0.05954 -0.04932 0.03445
0.02415 -0.01361 -0.1278 0.0477 0.05643 0.1388 -0.08826 0.02483
-0.09705 0.05804 0.06854 0.0488 -0.0613 0.12067 -0.02737 -0.10266
0.02397 -0.000464 0.08563 0.0455 0.003086 -0.04248 0.1179 -0.02678
0.1311 0.08246 -0.04922 0.1136 0.08 -0.06323 0.03583 -0.0586
-0.05316 0.0459 -0.1174 -0.124 0.02568 -0.03122 -0.08716 0.0841
0.137 0.01692 0.1415 -0.0852 -0.01381 0.07056 -0.0691 0.1267
0.006958 0.11914 -0.07306 0.09436 0.0679 -0.08777 -0.03812 -0.0496
0.12213 0.01976 -0.06335 0.133 0.0636 0.02164 0.0417 -0.0614
-0.0509 0.0592 0.01492 -0.04446 0.12213 0.00508 0.01936 0.08795
-0.0362 0.1266 0.10126 0.1279 0.03378 -0.0615 -0.08124 0.010025
-0.01514 0.1178 -0.0886 0.06186 -0.1389 -0.02615 0.06186 0.0372
-0.1315 -0.04868 -0.01611 0.08185 0.1279 0.03638 0.08966 0.02686
0.02994 0.08606 -0.1217 -0.04712 -0.009895 -0.08844 0.00466 -0.0287
-0.0896 -0.066 -0.0743 0.1189 -0.0812 -0.06213 -0.0844 -0.05313
0.06158 0.0322 0.1411 -0.1272 0.04102 -0.1287 0.05215 -0.11444
-0.11224 0.0769 -0.1077 -0.1362 0.0431 0.1279 0.03528 0.092
0.03528 0.02914 0.04373 0.0644 -0.1421 0.0986 -0.02242 -0.0403
0.05963 0.01009 -0.06256 -0.141 -0.012695 -0.133 -0.0925 0.02168

arith.constant4 f2 [32]
00000000: 0000 0000 0000 0000 0000 0000 0000 0000
00000010: 0000 0000 0000 0000 0000 0000 0000 0000
00000020: 0000 0000 0000 0000 0000 0000 0000 0000
00000030: 0000 0000 0000 0000 0000 0000 0000 0000
0.0 0.0 0.0 0.0 0.0 0.0 0.0 0.0
0.0 0.0 0.0 0.0 0.0 0.0 0.0 0.0
0.0 0.0 0.0 0.0 0.0 0.0 0.0 0.0
0.0 0.0 0.0 0.0 0.0 0.0 0.0 0.0

arith.constant5 f2 [10, 21632]
00000000: 0da4 f517 549d c31e 0820 439f ae15 3720
00000010: b714 6217 8a9c 1e20 08a4 8aa1 3724 4ca3
00000020: 7e20 ec16 e122 5890 b1a2 c718 a490 c5a1
00000030: 0d9c 0ca1 2220 581f 29a3 27a1 2a24 6319
00000040: ff1c 7219 4122 299c 681c ec9c aba3 f41e
00000050: 989d 17a2 7e20 b3a0 18a4 d61e 141c 0e24
00000060: fea1 d41d 911c 30a4 1f9c e016 67a2 c31c
00000070: a4a0 6815 7e1d 761b 06a2 6918 cc9b 03a2
00000080: 0b24 28a4 9207 499e d323 749a 671d 449c
00000090: cc19 bd23 5b20 989d c423 0c1e 2299 a121
000000a0: 331c cb9d 101f e18c 2d9d f820 5018 bb19
000000b0: faa1 859c 38a0 9720 daa1 9420 99a1 ed9b
000000c0: 6122 7521 8f1a 7e20 1815 a396 d4a3 4ba0
000000d0: 54a3 bb8e 281c f7a3 4024 95a2 850a b321
000000e0: aa19 6f23 f9a2 5520 13a2 7aa1 101a 8622
000000f0: 6e1f 369c 439b f316 42a2 599e 0c9f 4021
00000100: e01e 5723 06a4 7695 7fa0 861c 079c ff18
00000110: 9da3 6b20 1599 98a0 4aa0 f41a 991e d6a3
00000120: 25a4 dea0 5ca0 801d cf23 249f e59f 3024
00000130: 6921 a3a1 e1a1 6020 ea9b d51c fc21 31a4
00000140: a810 351f eaa1 31a4 f4a1 1921 6520 1f24
00000150: 2516 4323 391b 0c9e b198 7d96 7721 ff9c
00000160: a990 3fa2 c41f 0092 2297 1618 2fa3 2720
00000170: 249f bd21 0298 b5a1 2113 0300 4aa0 22a1
00000180: 7ba0 0ba1 e91e cf16 1b1d 96a0 519d 248c
00000190: 74a3 22a0 378b 0c9c d19f 4891 dd95 2d9c
000001a0: de23 4a21 d6a0 1024 c120 281b 01a2 c023
000001b0: b61c 0b9c 0e24 200e 4a9a 681f fda3 ec1d
000001c0: 1523 399e e523 02a1 0c23 9e1d bb1e 0a1e
000001d0: 1e20 7c9c f823 3323 2721 3c8f 539b 8a20
000001e0: 4124 d09f 1221 b923 7999 8e98 ce11 efa2
000001f0: 2c21 c79a be9e 2da0 a8a2 d41f e721 409f
-0.01582 0.001943 -0.005203 0.006603 0.00787 -0.00709 0.001387 0.00823
0.001151 0.001802 -0.004433 0.00804 -0.01575 -0.01082 0.01646 -0.01425
0.00877 0.00169 0.013435 -0.0005302 -0.01307 0.002333 -0.0005665 -0.01127
-0.003956 -0.00986 0.00807 0.00717 -0.013985 -0.01006 0.01627 0.00263
0.00488 0.002659 0.012215 -0.004063 0.004303 -0.004807 -0.01498 0.00679
-0.005463 -0.011894 0.00877 -0.00918 -0.01599 0.006676 0.003983 0.01584
-0.0117 0.00569 0.00446 -0.01636 -0.004025 0.001678 -0.012505 0.00465
-0.00906 0.00132 0.005363 0.003643 -0.011765 0.002153 -0.003807 -0.01174
0.0158 -0.01624 0.0001155 -0.006138 0.01528 -0.00315 0.005276 -0.004166
0.00283 0.015114 0.00851 -0.005463 0.01517 0.005905 -0.002506 0.010994
0.0041 -0.005657 0.006897 -0.0002978 -0.005054 0.009705 0.002106 0.002798
-0.01167 -0.004414 -0.00824 0.008965 -0.01143 0.00894 -0.01093 -0.00387
0.01246 0.01066 0.003202 0.00877 0.001244 -0.00162 -0.01529 -0.008385
-0.01431 -0.0004108 0.00406 -0.01556 0.0166 -0.012856 0.000199 0.01113
0.002766 0.01452 -0.01362 0.00846 -0.01186 -0.0107 0.00296 0.01274
0.007256 -0.004112 -0.003546 0.001697 -0.01222 -0.0062 -0.00688 0.010254
0.006714 0.014336 -0.01572 -0.001333 -0.00878 0.004417 -0.003933 0.00244
-0.01487 0.00863 -0.002481 -0.00897 -0.00838 0.003395 0.006443 -0.015305
-0.01619 -0.00951 -0.008514 0.00537 0.01525 -0.006973 -0.00771 0.01636
0.01057 -0.01101 -0.01148 0.008545 -0.003864 0.00472 0.01169 -0.01637
0.0005684 0.00704 -0.01155 -0.01637 -0.01163 0.00996 0.00858 0.0161
0.0015 0.01418 0.003527 -0.005905 -0.00229 -0.001584 0.01067 -0.00488
-0.000569 -0.0122 0.007584 -0.0007324 -0.001741 0.001995 -0.01403 0.00811
-0.006973 0.01121 -0.001957 -0.01115 0.00087 2e-07 -0.00838 -0.010025
-0.00875 -0.00985 0.00675 0.001662 0.004986 -0.00896 -0.00519 -0.0002527
-0.01456 -0.00807 -0.0002202 -0.003952 -0.007633 -0.0006447 -0.001431 -0.004078
0.015366 0.01033 -0.009445 0.01587 0.009285 0.003494 -0.01173 0.01514
0.0046 -0.00395 0.01584 0.0003738 -0.00307 0.007233 -0.0156 0.005783
0.01383 -0.006077 0.01542 -0.00978 0.01376 0.005486 0.006573 0.005898
0.00804 -0.00438 0.015564 0.01406 0.01006 -0.0004416 -0.003576 0.008865
0.01662 -0.00763 0.0099 0.01508 -0.002672 -0.002224 0.0007086 -0.01354
0.0101 -0.00331 -0.006584 -0.008156 -0.013 0.007645 0.01153 -0.00708
