notebooks/harfm_model.tflite (tflite, 436304 bytes, 3 tensors)

arith.constant f2 [32, 3, 3, 1]
00000000: 97ae 80b0 f42c dea8 ab29 0f28 8cae 9c2f
00000010: 25af e02d 90ad 71b0 062d 5c2c 48b0 6129
00000020: 4fa3 7fae 822e 0f27 bc2c e3af 70b0 1e2b
00000030: 922a 562d f6ab 691f a92f ec28 f02c 5c2c
00000040: 74ad 102f 262c 55b0 052c 762e 0920 3eaa
00000050: a32c d1ae 58b0 98a1 312e 21a1 b7a4 d623
00000060: 71ad 7fad 62b0 e02d cb2d 6b29 7e22 112c
00000070: 28ac a1a9 8321 82b0 09ac 8c2a 5d30 16a5
00000080: 6830 6bad 782f 10ac 2b30 d721 f7ad dd2b
00000090: 242d 002c 712e 04ac eda4 732c c8ad 4830
000000a0: 48af 44ac 2830 3730 d62f 4430 892a 8a2d
000000b0: 722b f4ac faa9 9398 0a30 fead ab2d 4b2d
000000c0: b7ad f1ad 3830 5ca7 4ea4 5da7 a62d 8330
000000d0: ea2d 18a8 99aa 2020 8b2d 0d2b 1dac fca4
000000e0: 19ad 022d 512e 0a24 21af 1324 2f1e 382d
000000f0: bf29 33aa 10ae e92e ec90 f8a0 3bac 51ac
00000100: e52f 872f af2d 542f 6894 dbaf 8bad 89ac
00000110: 5d2f 3424 34aa 7a2c 6b26 cf9f cea4 c222
00000120: acae 3baf a62b bfa7 2930 91a8 64aa dcae
00000130: 5fae 9f2d f72d 39a9 a3a0 3c30 0a9c 8b2f
00000140: 2fad 3cab 122c 7230 3c30 882f 25b0 b82e
00000150: 4e27 5c2a 322c 81b0 29a9 44ae 13ad d124
00000160: 2a2f f7aa bcaf 282c 6897 2aaa 47a6 ceaf
00000170: 8aad 7630 7620 6eb0 0daf d5a9 0cb0 3130
00000180: 5b25 6d2f e3af 14b0 462f 11b0 5a2f d8ab
00000190: 87af 882c 57ae 322d d525 a42d 9caf 192f
000001a0: b4af 1730 6629 18ad 59a8 f22d 1d2b 7d28
000001b0: 2d30 1ab0 4e1e 591d f7ae b4ac 5423 66ad
000001c0: 6c20 c8a5 af15 822e 0596 7b2a 5830 78b0
000001d0: 0ba2 44ad 082e 442f 6a2a c8ac 432d 91ad
000001e0: 4baa 5eaa 352b 3c30 31b0 9b19 b22e f1aa
000001f0: 2721 3e27 b5af 6f28 a22c 7d26 e9ab e0ab
-0.10297 -0.1406 0.0774 -0.03802 0.04428 0.0317 -0.1023 0.1189
-0.11163 0.0918 -0.0869 -0.1388 0.0785 0.0681 -0.1338 0.04202
-0.014275 -0.1015 0.1017 0.02757 0.074 -0.1232 -0.1387 0.0556
0.05133 0.0834 -0.0622 0.007236 0.1197 0.03845 0.07715 0.0681
-0.0852 0.11035 0.0648 -0.1354 0.0628 0.10095 0.00788 -0.04877
0.07245 -0.1065 -0.1357 -0.010925 0.09674 -0.01002 -0.01842 0.015305
-0.085 -0.0859 -0.137 0.0918 0.0905 0.04233 0.01268 0.06354
-0.06494 -0.04398 0.010765 -0.1409 -0.06305 0.05115 0.1364 -0.01987
0.1377 -0.08466 0.1167 -0.0635 0.1302 0.011406 -0.0932 0.06143
0.0803 0.0625 0.10065 -0.06274 -0.01924 0.0695 -0.09033 0.1338
-0.1138 -0.06665 0.1299 0.1317 0.12244 0.1333 0.05106 0.08655
0.05817 -0.0774 -0.0467 -0.002234 0.1262 -0.0936 0.08856 0.0827
-0.0893 -0.09283 0.1318 -0.02875 -0.01682 -0.02876 0.08826 0.141
0.0924 -0.03198 -0.05154 0.00806 0.0866 0.05508 -0.0643 -0.01947
-0.07965 0.07825 0.0987 0.01578 -0.1114 0.01591 0.00604 0.08154
0.0449 -0.04843 -0.0947 0.108 -0.000601 -0.009705 -0.0661 -0.06744
0.12335 0.1176 0.0888 0.1145 -0.001076 -0.12274 -0.0866 -0.07086
0.11505 0.01642 -0.04846 0.06995 0.02507 -0.007626 -0.01877 0.0132
-0.10425 -0.113 0.05975 -0.03026 0.13 -0.03568 -0.04993 -0.1072
-0.09955 0.0878 0.0932 -0.0408 -0.009056 0.1323 -0.003944 0.11786
-0.081 -0.05652 0.0636 0.1389 0.1323 0.1177 -0.1295 0.105
0.02853 0.04968 0.06555 -0.1407 -0.0403 -0.0979 -0.0793 0.01881
0.11194 -0.0544 -0.12085 0.06494 -0.001808 -0.04816 -0.02452 -0.12195
-0.08655 0.1394 0.00871 -0.1384 -0.11017 -0.04556 -0.1265 0.131
0.02092 0.116 -0.1232 -0.1274 0.11365 -0.1271 0.11487 -0.06128
-0.1176 0.0708 -0.09906 0.0812 0.02278 0.08813 -0.1189 0.1109
-0.12036 0.1278 0.04218 -0.0796 -0.03397 0.0929 0.05557 0.03506
0.1305 -0.1282 0.006157 0.005222 -0.1088 -0.0735 0.01431 -0.08435
0.00864 -0.02258 0.001388 0.1017 -0.00147 0.05063 0.1357 -0.1396
-0.0118 -0.0823 0.09424 0.1135 0.0501 -0.0747 0.0822 -0.087
-0.04916 -0.04974 0.0563 0.1323 -0.131 0.002737 0.1046 -0.05423
0.01006 0.02829 -0.1204 0.03464 0.0724 0.02534 -0.0618 -0.06152

arith.constant4 f2 [32]
00000000: 0000 0000 0000 0000 0000 0000 0000 0000
00000010: 0000 0000 0000 0000 0000 0000 0000 0000
00000020: 0000 0000 0000 0000 0000 0000 0000 0000
00000030: 0000 0000 0000 0000 0000 0000 0000 0000
0.0 0.0 0.0 0.0 0.0 0.0 0.0 0.0
0.0 0.0 0.0 0.0 0.0 0.0 0.0 0.0
0.0 0.0 0.0 0.0 0.0 0.0 0.0 0.0
0.0 0.0 0.0 0.0 0.0 0.0 0.0 0.0

arith.constant5 f2 [10, 21632]
00000000: e610 9ba0 2da2 7fa2 8fa2 f921 f1a3 5622
00000010: ad9d 7c19 85a2 f120 6d80 2217 8690 9122
00000020: 6d22 3a1d 8a1d ba1e 5fa0 111d 4122 8d21
00000030: d316 4823 5e99 2423 d720 82a3 f49a e38f
00000040: 0a24 ce9d cd9d 5799 aea2 781e 399d b91f
00000050: 61a1 2116 6019 b9a2 09a0 fb23 6023 f122
00000060: 8822 95a3 b0a3 8f1e 8720 ef1f 2100 6022
00000070: b3a1 2222 da98 31a1 caa1 c521 bc1c 3a9a
00000080: 35a4 0c19 4b22 0b99 5823 e797 be22 d21c
00000090: b0a1 c4a0 71a2 46a2 d79e 5ba3 3195 409e
000000a0: f6a0 c5a0 b3a0 4c1f dda3 6aa2 9323 f522
000000b0: bd1e 20a4 8491 9320 d323 59a2 ef20 c49e
000000c0: ad9e 3ca1 6e96 9c9b a8a2 6622 2e23 33a1
000000d0: 239f 24a4 9d20 6a9c c4a1 a021 4d21 a322
000000e0: aea2 ef97 fb18 7b1c ff14 7597 c69a b5a3
000000f0: 9220 1c1f 4f1a 321c b723 ca9a 7b1e 1aa2
00000100: 5f8d 26a3 eda3 b19e af1f 3d20 9ca0 e707
00000110: 661d 6593 14a4 fc1c a9a2 3012 3623 5c99
00000120: 0a24 be1e 1c9b 33a3 fd1c 6fa0 4da3 09a3
00000130: e99e 8823 2ea1 2298 f69e daa1 b120 5d10
00000140: 05a3 ef9b f9a1 3f0a 341f 62a2 04a1 7222
00000150: de9f bc1f aa12 7e1d 3f1b 2922 99a1 f51a
00000160: a79d 9022 d896 3ba4 4f9f 3119 13a4 bb1d
00000170: 791b 5620 9c0c 86a1 41a2 aaa3 769c 9ba3
00000180: e797 c49f ac18 1615 5215 4d20 4e89 ba22
00000190: 209f a7a0 0020 ca21 979e 2324 e321 499c
000001a0: 90a3 31a2 461d 631a 6199 f51e fa9d 6223
000001b0: 749f a822 009b 9fa2 011f f4a3 76a3 3d20
000001c0: b51c c51b d123 9623 ab84 4224 7aa1 5fa3
000001d0: ea21 951c d2a3 8415 aa1b 1a9e 6aa2 659d
000001e0: af20 5b20 3e99 9012 2224 de21 2698 0b9c
000001f0: 2924 47a1 97a1 ac9f b1a0 06a2 1121 c41a
0.000598 -0.008995 -0.01206 -0.01269 -0.01281 0.011665 -0.01551 0.012375
-0.005543 0.002678 -0.01273 0.00965 -6.5e-06 0.001741 -0.000552 0.012825
0.01255 0.005104 0.00541 0.00657 -0.00854 0.004948 0.012215 0.01084
0.001666 0.01422 -0.00262 0.01395 0.00945 -0.01466 -0.003395 -0.0004814
0.01578 -0.00567 -0.005665 -0.002607 -0.01305 0.006317 -0.0051 0.00754
-0.010506 0.001496 0.002625 -0.01313 -0.00788 0.01559 0.014404 0.01356
0.01276 -0.01481 -0.015015 0.006405 0.00884 0.007748 1.97e-06 0.01245
-0.01113 0.01198 -0.002369 -0.01014 -0.01131 0.01127 0.004623 -0.00304
-0.01643 0.002464 0.01229 -0.002462 0.01434 -0.001929 0.01317 0.004707
-0.01111 -0.00931 -0.01258 -0.01225 -0.00668 -0.014366 -0.001267 -0.006104
-0.00969 -0.009315 -0.00918 0.007126 -0.01536 -0.01253 0.01479 0.01359
0.00658 -0.01611 -0.0006733 0.008934 0.01528 -0.0124 0.009636 -0.006607
-0.00652 -0.01022 -0.00157 -0.003716 -0.013 0.0125 0.01402 -0.010155
-0.00697 -0.01617 0.00901 -0.00431 -0.01126 0.01099 0.01035 0.01296
-0.01305 -0.001937 0.002432 0.004375 0.00122 -0.001821 -0.003307 -0.01505
0.00893 0.006943 0.00308 0.004097 0.01507 -0.003315 0.00633 -0.01192
-0.0003278 -0.01396 -0.01548 -0.006535 0.007504 0.00828 -0.009 0.0001206
0.005272 -0.0009027 -0.01593 0.004868 -0.01301 0.0007553 0.014084 -0.002617
0.01578 0.006584 -0.003471 -0.01406 0.00487 -0.00866 -0.01426 -0.01374
-0.00675 0.01471 -0.01012 -0.002018 -0.006798 -0.01143 0.00916 0.0005326
-0.01371 -0.003874 -0.011665 0.0001906 0.007034 -0.01247 -0.009796 0.01259
-0.007683 0.007553 0.0008135 0.005363 0.003538 0.01203 -0.01093 0.003397
-0.00552 0.01282 -0.001671 -0.01653 -0.007137 0.002535 -0.01591 0.005596
0.003649 0.00847 0.0002813 -0.01079 -0.012215 -0.01497 -0.004356 -0.014854
-0.001929 -0.007584 0.002281 0.001242 0.001299 0.0084 -0.0001619 0.01314
-0.006958 -0.00909 0.007812 0.01131 -0.006435 0.01616 0.0115 -0.004185
-0.01477 -0.01209 0.00515 0.003119 -0.002626 0.006794 -0.005836 0.01442
-0.00728 0.013 -0.003418 -0.01293 0.00684 -0.01553 -0.01457 0.00828
0.004597 0.003794 0.01527 0.01482 -7.12e-05 0.01663 -0.0107 -0.0144
0.01155 0.004475 -0.015274 0.001347 0.003742 -0.00596 -0.01253 -0.00527
0.00915 0.00851 -0.00256 0.000801 0.01614 0.01146 -0.002026 -0.00395
0.01625 -0.01031 -0.01092 -0.007492 -0.00916 -0.011765 0.009895 0.003304
